models/model.npz (npz, 4006 bytes, 6 tensors)

W0 f8 [16, 1]
-0.0013386848839944396 0.008668087503402483 1.9742712989797069 1.7310377325741204 0.005025078423544609 1.4034867445387125 3.302172683006184 2.897795548502527
2.5602110356388037 0.010714269771580881 -3.4098907511200713 0.0009488152513675567 1.2407783911760815 1.463010213827145 -0.0013764638707264752 1.388631547574632
00000000: 7f4f f8f2 d9ee 55bf 2391 c402 93c0 813f
00000010: d9c9 6880 9d96 ff3f f5c3 189f 54b2 fb3f
00000020: 05c7 d237 2d95 743f c89c 4284 ae74 f63f
00000030: 910c fa82 d96a 0a40 7b80 ba6e af2e 0740
00000040: 666a 67ec 4f7b 0440 50db 27f2 5cf1 853f
00000050: dbf2 57cd 7447 0bc0 fab2 be3c 3d17 4f3f
00000060: ccf4 3a71 3ada f33f f89f e165 7d68 f73f
00000070: d1f2 c4d3 4e8d 56bf 3c6e b0b6 d537 f63f

b0 f8 [16]
-0.001550241019764019 -0.008684567988347549 -1.9759918719871143 -1.7315730601755703 -0.005027146558754513 -1.4035197981736858 -3.1169938028575803 -2.897994753644921
-2.616618265723988 -0.010720374577043909 3.373379273809755 -0.0009553396453754588 -1.241140635352973 -1.463165888835428 -0.0020548017427290603 -1.3903871773949865
00000000: c67e c59e 2e66 59bf e131 ebfb 36c9 81bf
00000010: 298b 35a7 a99d ffbf 606b 01f4 85b4 fbbf
00000020: b227 fe60 5897 74bf ad1c 072d d174 f6bf
00000030: 24dd 6872 9aef 08c0 7b13 97df 172f 07c0
00000040: c534 ab8e d5ee 04c0 8b97 ac51 90f4 85bf
00000050: 1423 d045 aefc 0a40 6d69 4844 f84d 4fbf
00000060: 2e3e 6948 b6db f3bf 26bc 92a2 2069 f7bf
00000070: aff5 1c49 3bd5 60bf 0907 fb9f 063f f6bf

W1 f8 [16, 16]
0.005399688777712981 -0.017473907592409674 1.0933536287684216 0.16961706506945312 -0.006049997823432279 -0.22333678020068454 0.0076996717262818315 -1.3734855532197254
-0.34382574666637156 -0.02237931909189531 -0.8936755911346578 -0.019307798566469518 1.0065702744411769 -0.16222528652421458 -0.012880588160259297 1.156358721710782
-0.007846607879337055 0.006857903912359386 -0.0200927007178791 -0.15829854794027778 0.010758971827460245 -0.17418996229393924 0.4393224998138735 0.47619022684488793
-0.18345821347348742 0.0010831806441111253 1.7079075914085853 -0.00027756805490012303 0.0010369054987729254 -0.14343914940423694 0.009550289221006605 -0.010378946382689276
-0.001180990130260533 0.011465348404430371 1.3377842645374485 0.17299573351875708 -0.005967473995124515 0.18808777540091046 -0.006023318317128556 -1.4429977872904762
-0.5601804764903798 -0.005243491817372116 -0.9065066639612643 0.012531587736564423 1.1972426556687221 0.19991274478919516 0.013839141945318784 1.3310586900544394
-0.010068076093322487 -0.0013134616849000678 0.007452307137209769 -0.007474027349073531 0.011314457227154654 0.004834656064588115 0.004323306118844477 -0.0002916886976549467
0.004338646810036789 -0.00662565076373391 -0.008413867897554937 -0.01221820153082576 -0.015953175387924637 -0.0041202322007963445 0.006378696033905685 0.011569217759581711
0.0024795429836338193 -0.012805841969883438 -0.009160609517371214 -0.31515950870440057 -0.0016751235637600024 -0.33599005961185496 0.8330166480087648 0.8953350036775438
-0.2646412565748941 0.009120772533212607 3.241103199856438 -0.011778231309012805 -0.010564645765719647 -0.2786537743404003 0.014446804796851535 -0.018855877288630734
0.00244706507659468 -0.0065903406410741565 -0.009019765366667022 -0.0010381498990670976 -0.010364837291356753 0.007298799575030587 -0.013485764237942094 -0.00981742464737145
-0.0012846888513532975 0.0012759079690902143 -0.00024419225423212934 0.016999365458669077 -0.009043311229957088 -0.011178611337435411 0.005692457413693531 -0.012805299776646151
-0.0014796624455947114 -0.012115080383649484 -0.004314553762771255 -0.018296710621044574 -0.003149329237659625 -0.013437102577177824 -0.014062991738830117 -0.005253257251823696
-0.0015215691922266191 -0.013292199427971987 -0.00805213321678284 -0.00017230348269234682 -0.00411390616663335 -0.005849203270833531 -0.0059512256571803215 -0.010139685332872177
-0.004618826586026447 -0.00021535271854317142 -0.004497378315934806 -0.26937381833655105 -0.007505300053171369 -0.2896612710048492 0.7260152297028902 0.7501036398626368
-0.2266974903055215 0.0011225217386088176 2.7967017468217548 0.016587439903280286 -0.01676509429089514 -0.23677671780084808 0.0037007374555427216 -0.007794559360857888
-0.021404237609573183 0.005249627681380778 0.2459930190433608 0.15726568536444926 0.003821337161156708 0.21505573591374072 -0.007820460037526391 -0.12487379946538231
0.05660536018844489 -0.006349882280691138 -0.12794949649439763 0.004102310673310029 0.1472683308958921 0.22929150572271845 -0.004411039719358529 0.1609394455630777
0.016909861762507555 -0.02206055371959675 -0.001035756987873906 -0.008620557908034494 -0.024300169987469377 0.002131305158951669 -0.0016768327998903038 -0.014936583563406483
0.005618033114323151 0.0042738249544884855 2.3574502525609587e-05 0.017326989947782395 -0.0017260366797999793 -0.0010670300995401854 0.011964458321439206 0.005205614088499233
0.008047346231802418 0.007543798433533399 1.4474509878543145 1.891786712758616 0.015979493145778623 1.4954101842236116 -2.919299576992088 3.238953134390036
2.479972368243891 0.0011180629526306544 -4.934595987685383 -0.011695947033648239 0.3250154827489048 1.5755003465826178 0.011378455267058196 0.38347662931172044
0.009816912930250103 0.00534167438420769 -0.004872853565372225 0.0022961703137696914 -0.004612214089145641 0.001817280328400014 -0.003532529419308918 -0.003535319023013768
-0.007264294598230631 -0.011765133049133377 -0.0017850914422753992 0.004824324580821839 -0.002107852835742939 -0.00019450962519952555 0.0008999211089521274 0.0003291168622402143
-0.0072679680257457385 0.0030386371338123387 0.4209690341755913 -0.011151051451057735 0.017658117370995863 -0.0061402757401761935 2.8902425365493336 0.7274297144947004
-0.002751632155255247 0.00047160785449700096 -5.888980728614606 0.002707769274718088 -0.010259743727045145 -0.007203382264836442 0.016763021512264803 0.007591180572141851
-0.001850249299318277 -0.008036096671075485 -0.0030701188779823476 0.018906675450535565 0.012664932363849636 -0.006064343473685512 0.0005777887463544215 -0.00942735829568305
-0.001399705625870774 0.014878571623461387 -0.012222566368344978 0.005462224067141994 -0.004010469407755456 0.00131077761446542 0.008217314613341383 -0.019247260638013044
-0.0033072799472406485 0.0035383559655788625 0.3208279951596599 1.2854545184855395 0.005094843280315469 1.048848142914745 -2.475848188070991 -0.32985553294995834
1.8890787090893455 -0.009656917294037328 -3.6020752405699388 0.00011062360138803062 0.04535618800715903 1.0781323131710132 0.00607795462110665 0.0797816840268003
-0.011000544571729538 0.015347776977489253 -0.008823182753432293 -0.06300093026446699 -0.011313443829193392 -0.08104001827789536 0.197110460314977 0.22059754429312547
-0.08576146709393556 0.0017322342213187722 0.7781195236436247 -0.011313789161867358 -0.010528522863540377 -0.06957363868348375 -0.010850508886259597 -0.0011624093197925393
00000000: d578 57eb fb1d 763f ac26 9216 aee4 91bf
00000010: 6b5f e85f 607e f13f 128d a811 03b6 c53f
00000020: ec21 aeec e1c7 78bf 4a5a 7ab3 4c96 ccbf
00000030: 00ae 11e4 b089 7f3f 0bb7 c9fc cbf9 f5bf
00000040: 361c 5db4 3d01 d6bf 49fe 6cae 9aea 96bf
00000050: b104 a58d fd98 ecbf 2e5c 9a6d 6cc5 93bf
00000060: 0e9c 9d6e e91a f03f 6655 1a56 ccc3 c4bf
00000070: 4c64 3647 2361 8abf 2513 c300 7280 f23f
00000080: 6170 cfe1 e111 80bf 66f4 5c90 0817 7c3f
00000090: ceec e251 2e93 94bf 2d32 3477 2043 c4bf
000000a0: d0a7 19c1 cc08 863f 4c06 ac4f db4b c6bf
000000b0: 4e3e 461e dc1d dc3f b54f be92 e679 de3f
000000c0: 378e 8609 8f7b c7bf 31a7 4b5c 30bf 513f
000000d0: 420a 1be9 9653 fb3f 5ca2 dcb7 d130 32bf
000000e0: a990 33cd 18fd 503f f320 d4cb 365c c2bf
000000f0: e8f6 f81e 1a8f 833f e4a4 3e9a 8e41 85bf
00000100: 48a6 207f 6e59 53bf c464 7903 257b 873f
00000110: 06ab 1479 9067 f53f 80c1 e764 b924 c63f
00000120: e471 619a 5971 78bf 2fe9 0f9e 4213 c83f
00000130: 0caa f732 e8ab 78bf afce 09d9 8416 f7bf
00000140: bb48 4c9b ffec e1bf 4e95 f51d 337a 75bf
00000150: eb3a 6a43 1a02 edbf 1bc8 f63b 29aa 893f
00000160: d892 37ea e727 f33f 032b 76a6 bd96 c93f
00000170: 8a90 7a30 b257 8c3f 5a72 6d32 044c f53f
00000180: 7a88 6f4c 929e 84bf 7ae5 cbbe 0e85 55bf
00000190: 67ec f176 4f86 7e3f 73f4 89f0 159d 7ebf
000001a0: 8fd8 19be 082c 873f 8bff f41a 81cd 733f
000001b0: 92ac 41a6 50b5 713f 0d30 c36a b91d 33bf
000001c0: e02d 87a2 66c5 713f 14ef 8495 7f23 7bbf
000001d0: 7f76 9f3b 4a3b 81bf 423a ed3f db05 89bf
000001e0: 64e4 3b7a 0756 90bf 569a de68 60e0 70bf
000001f0: 4e3f b52d 8c20 7a3f 2976 571f 9ab1 873f
00000200: cb6c c280 fa4f 643f 41ca aa03 f339 8abf
00000210: cfeb 4e32 ccc2 82bf 3c2a bac9 922b d4bf
00000220: 5634 143b fa71 5bbf b318 7473 dc80 d5bf
00000230: fa13 8787 12a8 ea3f 784a f897 95a6 ec3f
00000240: 4456 8ae1 e1ef d0bf ad89 f45d e9ad 823f
00000250: 3cc1 b283 c7ed 0940 ca28 3772 2f1f 88bf
00000260: 25f2 75c0 eaa2 85bf 24bc eca3 76d5 d1bf
00000270: 6fc9 1251 4996 8d3f 4b11 2b81 f44e 93bf
00000280: 4f7e 340f de0b 643f 35da 5d18 79fe 7abf
00000290: 74b1 236a f478 82bf 3285 59f7 5002 51bf
000002a0: 0cd3 8ee9 283a 85bf b0d7 9897 58e5 7d3f
000002b0: 3081 e8a2 6c9e 8bbf fecb 546e 281b 84bf
000002c0: f7c6 8826 600c 55bf f126 ffbf 8be7 543f
000002d0: 44e9 f0be dd00 30bf 3c7b ca1a 4868 913f
000002e0: 157b d7af 4c85 82bf dc30 dfd0 cfe4 86bf
000002f0: 9b9c cf66 f950 773f 8da3 0c3e aa39 8abf
00000300: d659 0774 273e 58bf b61b 4a90 cacf 88bf
00000310: 984e ed34 23ac 71bf 8990 f776 5fbc 92bf
00000320: ca0d 9042 9fcc 69bf 97ce f960 e984 8bbf
00000330: d74a d1cc 0ecd 8cbf 8e42 8181 7084 75bf
00000340: ea68 d47a eced 58bf 7b2e aece f038 8bbf
00000350: 6508 a206 a37d 80bf 8afc 73a5 8b95 26bf
00000360: 24af 1c47 bed9 70bf 2d1c 188c 55f5 77bf
00000370: 086b 19f9 4f60 78bf 9cdc 2b87 1dc4 84bf
00000380: a645 20d2 30eb 72bf 0108 39c4 093a 2cbf
00000390: 240c 8ecc d76b 72bf 4cdd 09af 6b3d d1bf
000003a0: 578e 66a4 e0bd 7ebf 3c8d 786d cf89 d2bf
000003b0: 5319 7f4a 843b e73f 4042 3a59 d900 e83f
000003c0: 6a47 7961 6c04 cdbf cf07 028a 3264 523f
000003d0: c31f 5a2a a55f 0640 e6c4 a23f 4cfc 903f
000003e0: a566 c66e de2a 91bf a455 b411 b34e cebf
000003f0: 7ae4 f64a 0251 6e3f cc74 aa18 30ed 7fbf
00000400: d69f 1d12 feea 95bf 50c4 5233 a280 753f
00000410: f8f2 ea01 b37c cf3f db2f b62f 4821 c43f
00000420: c204 4bc4 ec4d 6f3f 948a 4844 f286 cb3f
00000430: db8a ce60 2c04 80bf 9dc1 d4b4 baf7 bfbf
00000440: a449 93b5 60fb ac3f 200f aa8b 5502 7abf
00000450: 5ed6 7d2b a660 c0bf 0edd e0a2 95cd 703f
00000460: 3599 774c b0d9 c23f b632 2a8f 6c59 cd3f
00000470: 8743 6075 4f11 72bf 9836 aaeb a999 c43f
00000480: e8d8 ff9c d150 913f af7e 07b3 0a97 96bf
00000490: 3eed ed98 47f8 50bf f766 4eb2 a7a7 81bf
000004a0: b39f 88cd 24e2 98bf 1b67 93be ab75 613f
000004b0: 6432 5482 2579 5bbf dbb4 594f 1297 8ebf
000004c0: dadc e647 ef02 773f 12a1 8826 6e81 713f
000004d0: b8c7 557a 3bb8 f83e 48c7 a79c 2abe 913f
000004e0: fb1b dac5 8547 5cbf 2169 68d8 727b 51bf
000004f0: b8b5 a369 d280 883f c04f 4064 7b52 753f
00000500: 5ed9 1487 207b 803f 264b f4f8 3ee6 7e3f
00000510: d35a f65d c228 f73f bfe3 e424 c244 fe3f
00000520: 8000 dfa1 ed5c 903f 2e88 b53a 33ed f73f
00000530: df42 93bc b95a 07c0 edda cb42 60e9 0940
00000540: bdba c4c0 fbd6 0340 b030 40f4 7e51 523f
00000550: 7f53 08bb 06bd 13c0 a2c9 0a70 0bf4 87bf
00000560: a669 46bd 0dcd d43f 4d8b f6d9 3f35 f93f
00000570: 9313 026a 964d 873f 5825 6b8f e18a d83f
00000580: 7c65 ddbf e31a 843f 47ac 93cc 26e1 753f
00000590: 5839 39ab 8ef5 73bf c100 eb0c 6bcf 623f
000005a0: 43ed ccca 41e4 72bf 2548 00e5 39c6 5d3f
000005b0: eab5 7f4a 40f0 6cbf 4371 b6f2 19f6 6cbf
000005c0: fa84 a53b 2ac1 7dbf b1d4 6e6d 5118 88bf
000005d0: ff36 5b57 373f 5dbf 8f77 ccc4 abc2 733f
000005e0: 7d47 d1df 7c44 61bf dc11 3ef5 a87e 29bf
000005f0: 28dd afdd 157d 4d3f 0426 ee28 aa91 353f
00000600: 30c9 a94f 04c5 7dbf cdfe a6e3 7be4 683f
00000610: 7a6c 9a1a 28f1 da3f 6cee 62ca 5cd6 86bf
00000620: 5d2c 7832 f814 923f 9a31 e1b7 8b26 79bf
00000630: 58e6 9f7a 371f 0740 5e96 3cae 1a47 e73f
00000640: 6918 c243 978a 66bf 151b c54f 44e8 3e3f
00000650: 29b2 d0f6 508e 17c0 5263 5c8f 9a2e 663f
00000660: a61a 2f7e 0f03 85bf a40c f833 4b81 7dbf
00000670: d893 b554 532a 913f 30e0 b904 ee17 7f3f
00000680: 41a1 b80e 8250 5ebf 6b3c 1ea3 3a75 80bf
00000690: dae0 9f85 8126 69bf b8cd f182 455c 933f
000006a0: e164 7872 12f0 893f c550 42ce ecd6 78bf
000006b0: 1ce5 81e2 d7ee 423f 2b83 8a9c a64e 83bf
000006c0: 05f0 c678 caee 56bf f88c 4514 a878 8e3f
000006d0: cd12 9a16 2508 89bf d772 b59b 8e5f 763f
000006e0: 3fac 2a2f 486d 70bf 3620 22bf cc79 553f
000006f0: 31b3 334c 3dd4 803f 9752 e9cb 8db5 93bf
00000700: cca5 c966 de17 6bbf 46aa eb64 78fc 6c3f
00000710: ee86 b624 7288 d43f cc40 d6c1 3891 f43f
00000720: d273 4694 54de 743f 6aa0 84fd 14c8 f03f
00000730: 9001 ad7e 89ce 03c0 a32e 9b61 5a1c d5bf
00000740: fabc b198 aa39 fe3f 1b1f aa7f 01c7 83bf
00000750: 71d5 dfd2 0cd1 0cc0 1661 2100 d3ff 1c3f
00000760: 72ee 5220 ed38 a73f 0a49 1dab 0740 f13f
00000770: b106 3085 32e5 783f 8804 b78b 926c b43f
00000780: d7e0 6319 7487 86bf 0a19 7ac1 a76e 8f3f
00000790: bb21 fb8a e311 82bf 827c 1a37 d420 b0bf
000007a0: 331c 03ba 802b 87bf bcb9 2be4 09bf b4bf
000007b0: 6b4c 6062 ea3a c93f b38f 2853 8a3c cc3f
000007c0: 34e9 6ca8 76f4 b5bf 93c6 1755 8461 5c3f
000007d0: 00b6 4dea 5ae6 e83f 186f 8d13 af2b 87bf
000007e0: 1825 fe6a fa8f 85bf 2f2d cff6 93cf b1bf
000007f0: 7dd5 7da6 ca38 86bf b036 d680 7f0b 53bf

b1 f8 [16]
-0.291228390078319 -3.4297850980606808 -0.26329449777409597 -0.009191981290343402 -6.508559683054036 -0.0007234446072367123 0.0 -5.6162763479951305
0.00087932739158768 -0.0010891372852945733 0.4044197697909306 0.0 11.346441269814369 -0.003493824589081649 0.33051264077309017 -1.5623361946421397
00000000: 2c66 c366 7ca3 d2bf 89d4 632b 3370 0bc0
00000010: e203 4a2a d1d9 d0bf 8f41 38d8 3ed3 82bf
00000020: f61f 9bde c308 1ac0 9eb3 da76 b1b4 47bf
00000030: 0000 0000 0000 0000 e6bf 9f25 1177 16c0
00000040: 9117 d631 55d0 4c3f d13f 5b41 2cd8 51bf
00000050: c3e7 4675 03e2 d93f 0000 0000 0000 0000
00000060: c3ac 07c0 60b1 2640 fb5b 23cb 149f 6cbf
00000070: be3d c27d 1e27 d53f 7385 d53c 54ff f8bf

W2 f8 [1, 16]
2.5118997647808636 -1.1519405605018038 2.8366888103463532 -0.002491016963132385 -2.18606679327179 -0.012337022475713241 -0.002344860562177675 -1.886305189085227
0.5043658423326176 -0.008733224389637204 5.46117703252763 0.020453318680835286 4.326623188648698 -0.012468353683106235 4.282862670854017 -0.5248595871243237
00000000: df82 64e7 5e18 0440 94a8 a439 596e f2bf
00000010: 12ef 2ae7 89b1 0640 3071 7e8c 0a68 64bf
00000020: 9cca 3f96 107d 01c0 cb71 8120 2744 89bf
00000030: 4c16 b46d 8735 63bf 9d56 9659 4e2e febf
00000040: fe37 c1d5 c323 e03f 8510 2389 b9e2 81bf
00000050: 707d c1ca 3ed8 1540 f3be 50fb b6f1 943f
00000060: 1272 254f 764e 1140 6564 6e1a 0289 89bf
00000070: 124f 82c0 a621 1140 f11c 3655 a6cb e0bf

b2 f8 [1]
48.42481996120978
00000000: c00a 2080 6036 4840
