models/model.npz (npz, 4006 bytes, 6 tensors)

W0 f8 [16, 1]
0.0018091355720326065 0.0015372368362419466 0.005411365506130273 1.1745943232513814 2.221194936751104 2.6804644161087796 1.1119278157079189 2.0181056095511987
-2.9017050677028706 0.007875138861565524 1.924787861593742 0.1122026942116546 -1.6576143832112586 4.024473236250666 2.7486533166480456 1.3147754147731168
00000000: 0613 6b87 10a4 5d3f b9fd 057c a32f 593f
00000010: da2d 025e 3a2a 763f 35e9 c66a 23cb f23f
00000020: 2018 dbd9 01c5 0140 473b ea53 9771 0540
00000030: d1a6 3fd2 74ca f13f 1f2c c78d 1425 0040
00000040: d05e 8325 b136 07c0 b422 e53e d720 803f
00000050: be86 545b eecb fe3f 5682 29d6 50b9 bc3f
00000060: 5758 d4a8 9685 fabf aa4b 1583 0f19 1040
00000070: c05c 38f3 3dfd 0540 e290 00f2 5109 f53f

b0 f8 [16]
-0.0018108013491540897 -0.0017902834688448173 -0.005441829783433661 -1.1372625624914827 -2.1500034090553006 -2.6938427384229913 -1.1185099402157548 -2.024539434153389
1.6441239431618055 -0.007877231389368067 -1.9361812429692573 -0.11238718119870991 0.8440880011712183 -2.298646348560228 -2.7764993528901405 -0.4647773161569152
00000000: 6631 bf24 0dab 5dbf 50a4 c03c fe54 5dbf
00000010: 8135 340f 2c4a 76bf 71db 8d3a 3a32 f2bf
00000020: be72 c1fc 3433 01c0 2ac0 f06b fd8c 05c0
00000030: 2da4 d7ad 6ae5 f1bf 8f35 19bb 4132 00c0
00000040: 5235 67e8 544e fa3f 9a56 9a19 f021 80bf
00000050: cbe7 da2e 99fa febf 26f3 bc03 68c5 bcbf
00000060: 9b3e ffd6 c402 eb3f 8516 61b2 a063 02c0
00000070: fe39 f04a 4536 06c0 3a43 345b e9be ddbf

W1 f8 [16, 16]
0.009334804432124045 0.013234330509574302 0.015870832366200065 -0.012138398471000574 0.0031280994478313047 0.008921025339377749 0.005356751583147423 -0.0123184136318631
-0.04238089897923351 0.010136428323423105 -0.011795697672472938 0.009640332679707465 -0.020684859299564252 0.014748622008432768 -0.011348313844057557 -0.008606843287959987
0.007162202892162492 0.008934668077597461 -0.010616480689114015 0.014745857503229457 0.0005832325207263965 0.0020341829104133075 0.012233499436400477 -0.005342798428430616
0.04172252472110452 -0.011322630633048694 -0.04387971284466185 0.016878591795603564 -0.0019130580230923963 0.0012644602248139208 0.00038465484079759106 -0.0056075741999740475
-0.007013202525319261 -0.005777754816232184 0.0003222517773381186 -0.006452020312649722 -0.005519955970938742 5.771110097669961e-05 -0.013839331558494273 -0.01616515480291586
-0.13994753623074738 0.0014727754005403177 -0.013087429974800543 0.022921782570498334 -0.08254365207044385 0.04772861773452592 -0.010664440393378945 0.0039529228422596355
0.025949834702206766 -0.01482672059604198 0.009482866877328775 0.0381344580293273 0.09292596050364964 0.017373108205657014 -0.023458016625889155 -0.010380894489716661
-0.09899464399938059 -0.0076586406624099025 0.013365044098118837 -0.11703989677685663 0.0029958258878272645 -0.07271719028821025 -0.025811540099029192 0.01288785573537741
0.0020195895971282423 0.003116051800848567 -0.0038795778525067396 0.5421752164458747 1.013985558338138 0.10105198722466038 -0.02873197134433152 0.013867747929968408
-1.4490701760549407 0.004295663874919838 -0.04155596501437477 -1.700700916806398 -0.22078554689218732 -0.933662996727312 -0.5048585426244498 0.4637455696923031
0.005068103312461149 -0.013699785816059157 -0.005555404310930568 -0.0067730301565757135 -0.0002447052394995564 -0.0021637046292014017 0.01043377546327566 0.02080235859019593
-0.021045768201133398 -0.016583222726212196 0.007175767307939563 0.00021295217399468447 -0.02665480083742128 -0.024446693034431557 -0.0002969447561571443 0.029622990284768575
0.015797207865266893 0.01209712669132343 -0.0023159025710596803 0.020964295973151574 0.05428898712492351 -0.6524259031305825 -0.35639669475435887 -0.5351477179555705
1.7645174751976636 -0.008863679174618286 -0.6458859569047145 1.1856983535730266 0.9876514678655537 0.26141449479114454 -0.41778317402784637 0.005451617980532273
-0.004457337028427463 0.0077565663691187585 -0.0026951765362361038 0.00025655496377754636 0.004953923542719893 -0.002930439958421279 -0.0009571772980543435 -0.006021188556395771
-0.013259034833382276 -0.0009024369675282465 -0.0031499506805560346 -0.006234944955549728 -0.012710812119646737 -0.005354083460387338 -0.0015636286125536858 0.002536249283527519
-0.01626705953979132 -0.004671801333207156 -0.012061532352079398 0.6816812301208277 1.2338451010373301 0.0804101571619458 -0.057003038784168424 -0.07217432073271873
-1.1546646496711896 -0.012164605177995237 -0.07898809127744369 -1.916228997118216 -0.0038625709230411423 -1.152267857036795 -0.51472947406381 0.2474076287042901
0.01042143270033541 -0.014761760811825888 -0.010655384256306273 0.7386234892139996 1.4155325044566085 1.7431753875765366 0.1547888394551268 1.2954583903039558
-2.349033576870138 0.001079283101271915 0.27059659828049065 -2.200511627684284 -0.8074698074589236 -0.3351497773050844 -0.7051286741058909 0.7960168314916501
-0.004460267694469017 0.008742177997159211 0.004866746013258595 0.05290166934066637 0.13741780338548557 -1.2090758425652317 -0.5116224509077563 -0.8774182628620943
3.271152901597855 -0.0007557831411023377 -0.8458092335235358 2.225902375131822 1.8188395232737193 0.46113468891108644 -0.6462445823889715 0.029650952018486113
-0.0016076061088134118 -0.007695906546191615 -0.006035821134310337 0.004432507371648108 0.01938297800229664 -0.3033349508178159 -0.19555763842589438 -0.2651531679847529
0.8379641018860408 0.013447518302793754 -0.33650022411133923 0.5549028969735142 0.49198695087460637 0.12047242448943418 -0.23845016070319783 0.0014470686149325432
-0.011948124448386705 -0.01304381644976443 0.011114427102121729 -0.0037080901277674588 -0.004303086527754467 -0.007158397378073892 -0.001251745925752834 -0.012850510845297222
0.9708012765369363 -0.011886998113630982 -0.006814669263029292 -0.003639166528595104 0.8083957549495749 0.0034217700873738735 0.00352947473179902 0.013100423374150395
-0.016330346953689494 -0.0005726150724639074 -0.001807825655701735 0.08827354142599647 0.1752639985430942 1.771963847929111 1.456726781500485 1.968844204888475
-2.7418930641176917 0.002229529091092663 2.530146275761673 0.9078627805833629 -2.0455158878977526 3.7857448479954843 3.224842466551402 0.6885384749667672
-0.003908410975771572 0.002435309078080963 0.0026919341829393785 0.05031448222382474 0.0826142808892412 0.1268522316552116 0.02464944158873506 0.0959495254386638
-0.1508123813621996 -0.004019320160728148 0.025426393279385343 -0.16909629630618886 -0.06165028081964977 -0.07709597120319209 -0.04974194711692219 0.048568692375495014
0.003964294762587164 0.0011580037145367571 0.007689201254750055 0.007189649026710513 -0.008461166806615314 -0.0011409196940575363 -0.0020528125052034205 -0.0020499051957889895
0.009031617709104205 0.017351686841505034 0.011036470551334497 -0.02750100319279795 -0.0013858562593026399 0.0023681559073149587 0.008489154237408824 -0.006764121363726798
00000000: 2715 013e 201e 833f 68dc c8c5 991a 8b3f
00000010: 8e7b e487 7140 903f 648c ab43 04dc 88bf
00000020: d65d 779a 19a0 693f 31a4 a2c0 2f45 823f
00000030: 0c73 cc0d f6f0 753f 26e7 7f7d 653a 89bf
00000040: d588 2efe f2b2 a5bf 05c6 2d61 68c2 843f
00000050: 13ea e4bd 5728 88bf 14bd a78c 4fbe 833f
00000060: 2d20 db68 692e 95bf 0e8f 7f89 8634 8e3f
00000070: 878a 99e6 c83d 87bf 6d76 8cf3 76a0 81bf
00000080: e3c6 0633 1d56 7d3f 7f19 8dd9 564c 823f
00000090: f9eb ddea 17be 85bf 4fa1 d27d 1333 8e3f
000000a0: 092e 1e4d 821c 433f 9bb9 60a2 fda9 603f
000000b0: 2eb5 f57f e00d 893f cbc3 4e88 54e2 75bf
000000c0: 540d 5e9e a75c a53f ee65 30c2 5130 87bf
000000d0: ef5a 40d7 6677 a6bf bb00 0f1f 9f48 913f
000000e0: 3704 4069 f257 5fbf 26c3 02d4 87b7 543f
000000f0: 9e24 23f6 6f35 393f 87cf c7bc f7f7 76bf
00000100: a595 c837 e0b9 7cbf 5a2d ae3f 6aaa 77bf
00000110: e536 41d8 7c1e 353f 297c c603 6f6d 7abf
00000120: 43bd ede5 179c 76bf 18e7 9a54 da41 0e3f
00000130: c7b1 89a3 cb57 8cbf 906b da2c 998d 90bf
00000140: a727 a205 cde9 c1bf 3bc7 7f8b 4421 583f
00000150: 98fa d71d 95cd 8abf f576 06ca ce78 973f
00000160: ad8c 22ae 9421 b5bf f992 81a8 e26f a83f
00000170: 24f4 c1f5 3cd7 85bf d140 4ca5 f030 703f
00000180: 17c4 87ed 9792 9a3f 8f12 89c0 785d 8ebf
00000190: f232 e2d8 c06b 833f c85c 2c14 5c86 a33f
000001a0: 1f04 50e9 fec9 b73f 0fec 4a8e 41ca 913f
000001b0: 53e9 f2d8 6005 98bf 3246 b112 9442 85bf
000001c0: 55dd 7486 b657 b9bf c471 d4b2 aa5e 7fbf
000001d0: 1ff7 7cda 215f 8b3f 4ddb fba0 53f6 bdbf
000001e0: 82ab cec6 b38a 683f 5216 2502 989d b2bf
000001f0: 9fc1 5622 576e 9abf 352d 31b7 f264 8a3f
00000200: 2a18 ace8 628b 603f 8a21 7992 d586 693f
00000210: 5d30 f67f 10c8 6fbf afc6 ead6 7f59 e13f
00000220: 8fdb baeb 4839 f03f ca62 5304 8bde b93f
00000230: cd13 18f5 e96b 9dbf d888 a09e b166 8c3f
00000240: 2a3d 7c35 642f f7bf e2dd b77d 5498 713f
00000250: f383 61cd d246 a5bf 035f 1f2a 1236 fbbf
00000260: f06b aa67 b342 ccbf aebb 8d38 91e0 edbf
00000270: 18b4 351a cd27 e0bf ba92 dfe5 01ae dd3f
00000280: 3523 ad9f 4ac2 743f d061 5620 a20e 8cbf
00000290: 5ad7 4d7d 43c1 76bf 84eb 4670 09be 7bbf
000002a0: f71c 3500 7909 30bf 8026 dc13 9eb9 61bf
000002b0: d8cd 1ba3 4d5e 853f 7558 4ca7 364d 953f
000002c0: 8d7f 9298 058d 95bf cce0 153d 31fb 90bf
000002d0: 01b6 945e 5664 7d3f 5646 ef3e 7de9 2b3f
000002e0: 5131 8367 654b 9bbf b71c 50cc 8d08 99bf
000002f0: 02af 3304 e875 33bf e564 ee39 7d55 9e3f
00000300: 9005 99ac 242d 903f f150 1edc 60c6 883f
00000310: 80a5 b5b9 ccf8 62bf 8e78 5a16 aa77 953f
00000320: e611 7820 c4cb ab3f ad4a a049 ace0 e4bf
00000330: 7cd6 1715 34cf d6bf 1dbe 641b ee1f e1bf
00000340: 7e1c 13ad 763b fc3f 45f3 6ae1 1e27 82bf
00000350: c93e bb06 19ab e4bf 6d46 38d6 9ef8 f23f
00000360: be86 4a40 d79a ef3f 5403 75dc 03bb d03f
00000370: 0032 51a3 f5bc dabf 719b fc8e 6f54 763f
00000380: a3c2 3a4c db41 72bf c365 276e 59c5 7f3f
00000390: 3e05 90e2 3114 66bf be49 d62d 47d0 303f
000003a0: 3d57 a5b9 904a 743f 5e13 19f9 9301 68bf
000003b0: 51e8 8698 625d 4fbf 7d9f ec7e aca9 78bf
000003c0: 6c20 e387 8d27 8bbf 92ec 90a1 3092 4dbf
000003d0: 3227 06e5 eccd 69bf 4fb9 d24a d089 79bf
000003e0: b738 e052 2008 8abf f476 ccd5 29ee 75bf
000003f0: 80aa 4170 559e 59bf 72aa 4577 e6c6 643f
00000400: 77e6 e6e2 4fa8 90bf bc54 081f bd22 73bf
00000410: fb42 ef77 b7b3 88bf ea4f b527 55d0 e53f
00000420: f88f 545c d4bd f33f e2da 4693 c295 b43f
00000430: db84 b396 802f adbf 6c75 282b 047a b2bf
00000440: fef5 c2a3 8179 f2bf 4714 44ab c1e9 88bf
00000450: a261 cf44 9038 b4bf 5950 a4bc dfa8 febf
00000460: 67c8 5ff9 65a4 6fbf d647 a36b b06f f2bf
00000470: e485 2cf2 a978 e0bf 576d 089d 0dab cf3f
00000480: a1d4 0005 d557 853f bb67 58ff 693b 8ebf
00000490: 31d7 4177 7dd2 85bf c068 47ba cda2 e73f
000004a0: c70e 5169 05a6 f63f 6655 0de0 0be4 fb3f
000004b0: a56e 9fe5 1ed0 c33f def2 ba93 32ba f43f
000004c0: b8e7 ae1d d2ca 02c0 e1ad e067 d7ae 513f
000004d0: f681 0165 7451 d13f 4df9 1ad7 a59a 01c0
000004e0: 4d64 f1eb cad6 e9bf 8b5e 320d 1873 d5bf
000004f0: 6c36 5802 6a90 e6bf 4d4f 4a4a f878 e93f
00000500: 54ff 10fe ed44 72bf 63b6 bf44 6be7 813f
00000510: 412a 702f 27ef 733f c8a5 7177 ed15 ab3f
00000520: 87e3 b615 e896 c13f 9638 23e9 5f58 f3bf
00000530: ae8a d10b 365f e0bf 88fc fc76 cf13 ecbf
00000540: 58a0 6436 522b 0a40 210b dcef f7c3 48bf
00000550: e16d 9486 de10 ebbf 3c3d 8ae7 a5ce 0140
00000560: 2d20 d278 f719 fd3f ea26 fb11 3b83 dd3f
00000570: 6c7d 521e 09ae e4bf a1d0 dbb4 d15c 9e3f
00000580: 758a 61ea c956 5abf b80a dd2e be85 7fbf
00000590: 009b 0566 04b9 78bf 6547 3523 d227 723f
000005a0: 6bce 79a2 21d9 933f 2ec3 5fff d669 d3bf
000005b0: c1d7 c25e 0808 c9bf 3f38 3bfe 44f8 d0bf
000005c0: 6352 9a17 9ad0 ea3f f037 955a 5f8a 8b3f
000005d0: 6fe9 693c 3889 d5bf ef9e 5eb8 c3c1 e13f
000005e0: 1f2c 04d6 b67c df3f c07f 40e3 47d7 be3f
000005f0: 651c f9ec 8885 cebf f7b6 1318 72b5 573f
00000600: 57ed 081e 4278 88bf 1ebc 8868 b7b6 8abf
00000610: fbcf 5627 29c3 863f 7c4b 8aba 6d60 6ebf
00000620: 057a 89fe 1ca0 71bf 84ef 16aa 1f52 7dbf
00000630: 00bc 18f4 3382 54bf 8b20 8a5e 5e51 8abf
00000640: a884 b4d6 cd10 ef3f 244f 2ae1 3558 88bf
00000650: e45f e2d9 b2e9 7bbf 2f50 33a7 e2cf 6dbf
00000660: 197a 37c6 60de e93f f998 d4d3 f807 6c3f
00000670: 4cbf 7151 d8e9 6c3f ba55 a50f 65d4 8a3f
00000680: bbca 6408 e7b8 90bf 77f9 3481 71c3 42bf
00000690: a0e4 5b04 929e 5dbf 7cd9 8645 1899 b63f
000006a0: f252 f4fa 0c6f c63f 2fcc 88c3 f659 fc3f
000006b0: de07 dcbd c04e f73f 58a4 eec7 6280 ff3f
000006c0: 241e 7ca1 65ef 05c0 32e1 0351 a943 623f
000006d0: cff0 a354 bd3d 0440 af8e fb3e 360d ed3f
000006e0: 06c1 0f6f 375d 00c0 f720 4998 3449 0e40
000006f0: d3b8 0435 7acc 0940 ada3 00d7 8108 e63f
00000700: 9ccf 1f15 4402 70bf d282 129b 36f3 633f
00000710: 5f2f eb28 650d 663f 913f 55df d1c2 a93f
00000720: c312 9aa2 3526 b53f b61e 31a5 b13c c03f
00000730: 81ff f305 b43d 993f 6366 d3e9 2590 b83f
00000740: da29 e4f2 d14d c3bf 029a 470a 9076 70bf
00000750: e15b 5c5e 6009 9a3f 5941 418b f2a4 c5bf
00000760: a5b8 d127 a090 afbf e697 f8c2 8fbc b3bf
00000770: b68c 36c8 c677 a9bf f376 b9e2 fedd a83f
00000780: 5c56 b645 dd3c 703f 8f05 4905 05f9 523f
00000790: 1985 be3e b67e 7f3f 1ef2 07b7 e472 7d3f
000007a0: 2b68 c395 1654 81bf b964 7e31 5db1 52bf
000007b0: 3daf 6352 0fd1 60bf 4678 d378 f6ca 60bf
000007c0: 3c4d 8635 2b7f 823f e70c 0ffe a3c4 913f
000007d0: bf65 a600 4a9a 863f ebf1 4715 3929 9cbf
000007e0: c1e1 e1d3 b3b4 56bf c655 8f05 6266 633f
000007f0: 861e 90fe c262 813f d2b0 b100 b2b4 7bbf

b1 f8 [16]
0.03587847434043612 -0.04920872975554817 0.12262550487820402 -0.017009867769625434 0.35182272459416597 0.02288975417782432 -2.696327847076951 -0.003096487576164592
-0.3174222043401942 -0.013424363822279285 -4.991377472527308 -1.2935416858172815 -3.8706528611109605 4.435438857937337 0.029853071135665068 -0.010112421685919831
00000000: 4058 d8d3 a95e a23f c69f f4f9 e231 a9bf
00000010: e97c 1b95 6264 bf3f a18a 1ee7 086b 91bf
00000020: 9ac7 0776 4384 d63f f7ce 6d66 6970 973f
00000030: b0ea 9355 1492 05c0 7438 e81b ce5d 69bf
00000040: 5095 aa38 a550 d4bf 7abb b09c 3b7e 8bbf
00000050: d4fb f9a7 2bf7 13c0 2091 49c4 58b2 f4bf
00000060: 8d1f e5d8 18f7 0ec0 6afe 18af e3bd 1140
00000070: 87f3 d9b0 cd91 9e3f f024 6543 d2b5 84bf

W2 f8 [1, 16]
0.06140807755945821 -0.024195755554746803 0.20829308128052706 0.1722462963322273 2.5559158898770833 0.03367421791114897 -1.4039863437523499 -0.0015159905506004104
2.5666799848867528 3.3419127272803286 -2.598580221369388 -0.6748053072676744 2.857041235978774 5.736475037216192 0.24738860366186913 -0.004897538823253875
00000000: 50fd a729 e170 af3f 5414 3dab c5c6 98bf
00000010: 919d 0a02 59a9 ca3f 3751 cda8 2a0c c63f
00000020: 5dca b207 8472 0440 6c24 4b41 bf3d a13f
00000030: bc26 6762 ba76 f6bf cef4 7e75 86d6 58bf
00000040: 4d17 1384 8f88 0440 9b0a 6ebd 3cbc 0a40
00000050: fe82 566d e4c9 04c0 7738 bc4c 0198 e5bf
00000060: 6ad1 7e6f 38db 0640 dda7 1c83 26f2 1640
00000070: 29bf 1005 6eaa cf3f b06e 3a11 710f 74bf

b2 f8 [1]
32.90638737660337
00000000: 6502 6680 0474 4040
